openfe/tests/.model.pt (torch, 596889 bytes, 16 tensors)

weight f4 [128, 116]
000000 3b cd 3e 00 24 a6 e3 bb ee 58 3e 80 f0 f0 3f 00
       5.767424e-39 -0.0069472957 -5.725703e-39 5.872068e-39
000010 fd be 49 80 f8 d1 23 80 f7 af 10 bb 02 de e0 3b
       -6.772505e-39 -3.289565e-39 -0.002207754 0.006862403
000020 36 8b 94 3c 95 27 7e 3a ae 88 4e 00 a0 5b 1e 00
       0.018132787 0.0009695229 7.2122e-39 2.787934e-39
000030 98 ac 05 80 62 36 41 80 1b 12 16 80 7b e6 5c bc
       -5.21092e-40 -5.988816e-39 -2.026876e-39 -0.013482685
000040 dd 3a 88 3c 75 27 d4 ba cc 64 2b 80 36 99 11 80
       0.01662963 -0.0016186076 -3.985085e-39 -1.616165e-39
000050 94 6f 4d 80 61 46 03 00 ea da 51 00 f6 51 13 00
       -7.11136e-39 3.00754e-40 7.517207e-39 1.774276e-39
000060 6b bb 3e 00 15 17 0c 80 c8 e7 07 80 e8 8a 30 00
       5.761034e-39 -1.110306e-39 -7.25996e-40 4.457934e-39
000070 17 c3 2e 00 d5 bd 4f 00 68 2f 2d 00 90 80 44 80
       4.294418e-39 7.323103e-39 4.149603e-39 -6.290933e-39
000080 51 13 3a 80 32 85 36 00 f1 25 49 00 02 63 2a 3c
       -5.333388e-39 5.006898e-39 6.717602e-39 0.010399582
000090 f1 07 3d 00 5c dc 50 00 64 43 38 80 75 c8 39 80
       5.604814e-39 7.42589e-39 -5.166963e-39 -5.306534e-39
0000a0 35 d7 46 80 ac 3b 53 00 d4 2d 1b 00 3c d1 1a 80
       -6.505686e-39 7.643752e-39 2.495998e-39 -2.462782e-39
0000b0 98 a6 42 80 81 cc 43 80 f2 e5 00 00 54 d7 4f 80
       -6.120905e-39 -6.22634e-39 8.2489e-41 -7.33225e-39
0000c0 9c 62 45 80 0e 0e 15 00 f4 ed 13 00 0e 4a 13 80
       -6.372024e-39 1.933587e-39 1.830236e-39 -1.77144e-39
0000d0 b8 ee 38 00 4e ae a2 bc 6b 20 45 00 68 7f 22 00
       5.228424e-39 -0.019858506 6.348279e-39 3.168112e-39
0000e0 df 0d 4f 00 97 51 0b 00 9b 00 20 80 da 79 2b 00
       7.25998e-39 1.03946e-39 -2.938953e-39 3.992638e-39
0000f0 6a 8d 37 00 99 04 0a 80 a0 8e 4b 00 c9 37 2d 80
       5.101682e-39 -9.20004e-40 6.938826e-39 -4.152609e-39
000100 ee b5 36 00 64 af 50 00 56 bb 0d 00 72 c4 2a 00
       5.024381e-39 7.409758e-39 1.261065e-39 3.927562e-39
000110 64 a4 11 00 e7 27 44 80 97 8c 4f 00 fc c2 2e 80
       1.620176e-39 -6.259128e-39 7.305438e-39 -4.29438e-39
000120 44 79 09 00 20 80 4e 80 d3 32 4e 00 05 f4 47 00
       8.70021e-40 -7.209131e-39 7.181401e-39 6.607858e-39
000130 fb b9 43 00 a1 94 24 00 f6 db 4c 00 20 9d 32 00
       6.219695e-39 3.359396e-39 7.058405e-39 4.64814e-39
000140 1b e5 20 80 f5 4a 03 80 3d 7d 50 80 09 d0 12 80
       -3.020923e-39 -3.02396e-40 -7.391767e-39 -1.727668e-39
000150 ed aa 0b 80 b6 08 4f 80 69 09 52 00 b1 78 50 00
       -1.071507e-39 -7.258129e-39 7.533886e-39 7.390136e-39
000160 60 60 02 00 6c 8d 2f 80 66 1f 01 00 b8 39 23 80
       2.18244e-40 -4.367001e-39 1.03099e-40 -3.234948e-39
000170 a3 eb 36 00 47 b6 49 00 44 a4 49 00 97 a4 1f 80
       5.043647e-39 6.76938e-39 6.762919e-39 -2.905944e-39
000180 9c 99 50 00 52 a2 33 00 fc 35 00 00 62 00 10 00
       7.401944e-39 4.74184e-39 1.9366e-41 1.469505e-39
000190 ed 53 9d 3b 4d 35 d1 3a 4d 35 d1 3a 88 ec 6d b9
       0.0048012645 0.001596132 0.001596132 -0.00022690196
0001a0 7b 1d 51 bb fc f7 e1 3c e2 d0 21 3c 0e 5a 18 bb
       -0.003190844 0.027584068 0.009876462 -0.0023247036
0001b0 8d 26 49 3b 79 e1 0b 3c e8 36 fc bb 5c 63 39 ba
       0.0030693144 0.008537644 -0.007696975 -0.00070719956
0001c0 38 56 9d 3b ad 4c 9a 3c 01 d5 bd bb 8c 94 0d 00
       0.004801538 0.01883539 -0.0057932143 1.24715e-39
0001d0 39 a2 43 00 e0 8f 94 3e 5d 16 07 80 6f 27 2f 80
       6.211173e-39 0.29016018 -6.50871e-40 -4.330414e-39
0001e0 a7 c0 21 80 1c be 4e 80 c3 33 ff be e3 86 72 3e
       -3.099682e-39 -7.231367e-39 -0.4984418 0.23684268
0001f0 1c e0 14 bf 0a 6f d7 be b7 c2 2c 00 10 a0 4b 80
       -0.58154464 -0.42076904 4.110612e-39 -6.945082e-39
000200 2a 99 10 00 4d 78 21 80 20 92 4f 80 1a e1 d1 3b
       1.524313e-39 -3.073727e-39 -7.307424e-39 0.006405008
000210 94 65 09 3f 65 95 f5 bd 0a bf 2f 80 91 f9 3a 80
       0.5367062 -0.11991385 -4.3848e-39 -5.415986e-39
000220 82 17 0e 00 94 77 49 00 3a dd 23 80 57 19 19 80
       1.29413e-39 6.746888e-39 -3.293604e-39 -2.304978e-39
000230 eb b8 3d 00 b2 0b 2f 00 ae 39 1b 80 b8 d0 06 80
       5.668301e-39 4.320464e-39 -2.50025e-39 -6.25887e-40
000240 37 c8 00 80 0f 33 16 00 99 2d 07 00 71 95 21 80
       -7.1824e-41 2.038697e-39 6.59206e-40 -3.084181e-39
000250 1c 7c 11 80 e9 27 21 00 31 72 31 80 c0 e9 f8 3c
       -1.605725e-39 3.044888e-39 -4.540903e-39 0.030384898
000260 ba 69 4c 00 57 af 2e 80 a8 33 4f 00 73 c0 4a 00
       7.017425e-39 -4.287333e-39 7.273535e-39 6.864864e-39
000270 0a 92 4d 80 dc 6b 16 80 14 69 2c 00 ec 70 0b 80
       -7.123722e-39 -2.059074e-39 4.078457e-39 -1.050699e-39
000280 d2 59 3b 80 3d b4 01 00 45 72 11 80 53 f6 45 80
       -5.450516e-39 1.56493e-40 -1.602196e-39 -6.425014e-39
000290 4a 3c 0b 80 66 3a 4f 00 6e ad 29 80 b5 74 44 00
       -1.031818e-39 7.275954e-39 -3.82747e-39 6.28668e-39
0002a0 e3 ea 22 00 b2 9e 06 bc 19 ea 41 00 c5 c9 02 80
       3.206668e-39 -0.008216547 6.053286e-39 -2.56052e-40
0002b0 f9 1f 37 80 33 2b 05 80 ff 83 25 00 02 9f 09 00
       -5.062422e-39 -4.74674e-40 3.445265e-39 8.83561e-40
0002c0 6d 37 09 80 de 3b 39 80 c9 0e 0a 80 5c 3c 1e 80
       -8.46402e-40 -5.2561e-39 -9.23659e-40 -2.776718e-39
0002d0 fe 6b 3d 80 86 b3 51 80 a4 b6 15 00 a1 39 33 00
       -5.640706e-39 -7.503076e-39 1.994065e-39 4.704284e-39
0002e0 55 e4 24 00 a8 a5 09 80 99 d2 15 80 fe 87 30 80
       3.387988e-39 -8.85946e-40 -2.004094e-39 -4.456889e-39
0002f0 fc 52 00 00 45 94 47 80 17 17 4d 80 75 8d 22 00
       2.9769e-41 -6.57351e-39 -7.079616e-39 3.173152e-39
000300 fd 00 36 80 ea fe 19 00 02 68 2d 80 e3 35 1b 00
       -4.959471e-39 2.387333e-39 -4.169908e-39 2.49889e-39
000310 47 5c 43 00 67 54 43 80 9a 0d 52 00 62 3b 08 00
       6.186081e-39 -6.183256e-39 7.53539e-39 7.55987e-40
000320 a9 ea 4d 80 f8 9f 25 00 81 b6 29 80 08 63 45 80
       -7.155513e-39 3.4553e-39 -3.830725e-39 -6.372175e-39
000330 0f fb 2c 00 fa ef 1c 00 69 62 12 00 f1 69 45 00
       4.130825e-39 2.657481e-39 1.688342e-39 6.374654e-39
000340 fd 1a 52 80 c3 78 37 00 0c 21 40 80 97 7c 46 80
       -7.540192e-39 5.094273e-39 -5.889327e-39 -6.473179e-39
000350 67 db 4e 00 6b d0 41 80 32 cd 14 00 e7 36 31 00
       7.241875e-39 -6.044074e-39 1.91032e-39 4.519635e-39
000360 21 ea 1f 3f 89 00 bd bd b6 0a bd bd 45 a9 34 3f
       0.6246663 -0.09228618 -0.092305586 0.70570785
000370 b5 12 5c 3c b4 00 10 bf 22 48 e9 be d4 07 f2 bd
       0.0134321945 -0.5625107 -0.45562845 -0.11817899
000380 a2 c3 05 bf 0d 2a 79 3e 7d d5 2e 3c 9b ff 57 3d
       -0.52251637 0.24332447 0.010671017 0.052734
000390 0b 44 7a be f5 2b 05 bf d7 e1 1b 3d 27 28 0c 00
       -0.24440019 -0.520202 0.038057175 1.11643e-39
0003a0 81 58 28 00 6f d6 76 bc b5 a9 09 80 15 4d 06 80
       3.705169e-39 -0.015065773 -8.87399e-40 -5.78665e-40
0003b0 e9 c2 18 80 59 e5 21 00 19 38 56 3b 25 25 71 3b
       -2.273972e-39 3.112846e-39 0.0032687245 0.0036795822
0003c0 ff e1 55 bc 88 82 d8 bb 47 67 51 00 ad 6a 51 80
       -0.01305437 -0.0066073574 7.475724e-39 -7.476943e-39
0003d0 29 ab 04 00 62 15 02 80 e1 27 13 00 ec 08 4a bc
       4.28743e-40 -1.91342e-40 1.75918e-39 -0.012331229
0003e0 31 89 22 3c 32 02 38 bc 20 0a 27 80 46 44 50 00
       0.009920404 -0.011230992 -3.585217e-39 7.371332e-39
0003f0 e4 ca 29 00 6c 0c 15 80 a1 0a 4d 00 8f 28 1f 00
       3.838039e-39 -1.933002e-39 7.075146e-39 2.86145e-39

bias f4 [128]
000000 05 8b b1 3b 46 7f e8 be be 2e 98 3b 18 80 ef 3b
       0.0054181837 -0.45409602 0.004644244 0.007308971
000010 56 a8 53 3b e4 0b 5a ba 80 8a a1 3b e1 ef a7 3a
       0.003229638 -0.0008317812 0.0049298406 0.0012812578
000020 23 2f cf 3e 7d de 9c b9 4b 57 7e 3b 55 85 a7 bb
       0.4046565 -0.00029920405 0.0038809355 -0.00511233
000030 4f 23 a9 bb 0b c7 62 3e 6c 55 2d bb 8f b5 6d 3b
       -0.00516168 0.22146241 -0.002644862 0.0036271547
000040 f9 bc f8 bb 75 57 7b 3c 07 dd 25 3a c1 d4 d5 bb
       -0.0075908867 0.015340676 0.0006327186 -0.0065256064
000050 07 d5 47 bb 2d 42 16 3b f4 95 c2 3b 86 33 e8 bd
       -0.0030491964 0.0022927627 0.005938286 -0.11337952
000060 e2 a9 c1 be 74 3e 94 3b b1 60 81 bb 37 19 3c ba
       -0.37824923 0.0045240466 -0.003948294 -0.0007175388
000070 8b 4e b0 bb 60 47 74 3c 7c 23 96 bb f2 2c 94 3b
       -0.005380457 0.014909595 -0.004581867 0.0045219595
000080 67 8c 23 bc fd ba 93 3b 6d c9 d7 3b 15 94 8d bb
       -0.009982205 0.0045083747 0.006585291 -0.0043206313
000090 2a 7c 0f bb ba 54 8b bf 0d 94 6f 3b 47 68 06 3a
       -0.0021894076 -1.0885231 0.003655675 0.0005127233
0000a0 04 f1 a3 39 7a 7d 5a 3f c4 32 22 3b 9b 1a 67 bb
       0.00031269353 0.8534771 0.0024749497 -0.003526366
0000b0 87 e5 36 ba fb b7 fc 3b ef 6a ca ba bb 0c ac bb
       -0.0006976951 0.007712362 -0.0015443246 -0.005250541
0000c0 26 1f 6b bb ce 8a 2d bc fd 3d 4a bb 8d f9 ab 3e
       -0.003587672 -0.010592176 -0.0030859702 0.3358883
0000d0 12 8e a5 3a 87 20 92 3b 48 bf 9b 3a 80 51 31 3c
       0.0012630841 0.004459444 0.0011882568 0.010822654
0000e0 da 0b 28 3a 99 48 63 bc b7 3d 02 3b a2 ed 5a be
       0.00064104574 -0.013872289 0.001987321 -0.21379712
0000f0 c6 d4 75 bb 26 ac 0e 3c c2 35 ba b9 ba 3c 13 bc
       -0.0037510856 0.008708036 -0.00035516737 -0.008986646
000100 c0 b5 f4 3b 1e 32 39 bb f1 90 a1 ba b7 74 5c 3f
       0.0074679554 -0.0028258632 -0.0012326521 0.8611559
000110 25 3b 06 bc 9e 47 42 bb 88 b7 95 39 53 f3 b9 bb
       -0.008192812 -0.0029644738 0.00028556236 -0.0056747585
000120 49 71 a9 3b ca 6f 99 3b b5 cc 5e 3c a0 9e 7e bb
       0.0051709753 0.0046825157 0.013598611 -0.0038851872
000130 0d 52 47 bb 9a f8 ce ba 57 a5 1c be 8b 4e a6 ba
       -0.0030413896 -0.0015790642 -0.15297447 -0.0012688203
000140 1c e9 de bb 53 1d b2 3a 2c 4f 57 bc b8 ce cd ba
       -0.006802691 0.0013589062 -0.013141435 -0.0015701866
000150 6d 60 6b 3b ab 4d 91 bb c0 56 a6 3a 9d f6 1b bc
       0.0035915629 -0.0044343076 0.0012690648 -0.009519246
000160 2c 8b c0 3a a7 ab 50 3b d0 a6 22 bb 4a 1b 9d bb
       0.0014689914 0.0031840594 -0.0024818666 -0.004794513
000170 12 07 0c 3c 9d 2a 06 3b 60 5c c9 bb c3 bb a9 3b
       0.008546608 0.0020472177 -0.006145045 0.0051798536
000180 75 09 fb bb 3c 91 4f bb d0 6f d5 3b c4 76 e4 bb
       -0.0076610395 -0.003167226 0.006513573 -0.006972166
000190 4b df 9f 3d 6d 25 6f 3b 0a 45 19 3f 71 e6 c0 ba
       0.07806262 0.0036490813 0.5987097 -0.0014717114
0001a0 a6 73 8c ba 4b ce ea ba 89 10 b3 3b 6f f3 6b ba
       -0.0010715618 -0.0017914263 0.0054646176 -0.0009000813
0001b0 77 9b a2 3a 98 5c 81 bb 06 df 39 bb 86 a8 28 bc
       0.0012405951 -0.0039478056 -0.0028361692 -0.010294085
0001c0 70 ae 7c bb 9c 91 ae ba 77 6d 9e 3b 54 f1 0d 3a
       -0.0038556121 -0.0013318541 0.0048348266 0.0005414684
0001d0 5d 2e b5 bb dc a7 f6 3a fb 9d e8 ba f8 ec 22 3b
       -0.0055292086 0.0018818337 -0.0017747277 0.0024860483
0001e0 91 77 68 3f a5 4c 36 bb 83 36 88 3a 07 6c 81 3b
       0.90807444 -0.002781668 0.0010392222 0.0039496454
0001f0 8f a1 25 3c c4 1b 48 bc 84 10 28 be 8f fe 64 3b
       0.010109319 -0.012213651 -0.1641255 0.0034941768

bias f4 [128]
000000 84 65 37 be 95 66 09 bb 81 45 ff 3d 38 63 f8 bb
       -0.17909819 -0.0020965685 0.12464429 -0.007580187
000010 1a 17 18 3d 84 2d 41 be d3 d9 31 b8 0f 5c 84 bb
       0.037131406 -0.18865019 -4.2402953e-05 -0.0040392946
000020 2f d9 09 be 93 8f 00 b8 a2 25 36 be f4 c2 ad 9e
       -0.13461755 -3.0651292e-05 -0.17787793 -1.8397718e-20
000030 a1 00 9a bd 0f 60 15 be 8f d2 95 bc f5 b3 24 bd
       -0.07519651 -0.14587425 -0.018288879 -0.040210683
000040 67 30 08 be a0 51 31 be 99 38 89 bb 66 fc 07 a8
       -0.13299714 -0.17316294 -0.004187655 -7.548736e-15
000050 de bc d8 be 04 40 43 ad c9 0e 05 bd cb 9e c0 a8
       -0.42331594 -1.1098681e-11 -0.032484803 -2.1385148e-14
000060 f9 46 88 bd de 22 1c b6 28 67 dc 3c f4 70 dc bd
       -0.06654162 -2.3266107e-06 0.026904657 -0.107637316
000070 69 4d ba be 0d 09 5c ba bf 36 45 90 dd 26 11 be
       -0.36387184 -0.00083936827 -3.8893574e-29 -0.14174981
000080 b0 dc c6 b9 30 ce 98 bb d5 b1 44 be 69 73 8e be
       -0.00037929928 -0.0046632513 -0.19208463 -0.27822426
000090 76 4e 27 b8 a2 1d af bd 3a 41 e3 aa ac 33 94 bd
       -3.9888975e-05 -0.08550574 -4.036856e-13 -0.07236418
0000a0 d8 73 b1 bd c4 9e bc be f8 1f ae bb e3 79 f6 bb
       -0.086646736 -0.3683988 -0.0053138696 -0.0075218542
0000b0 29 fd 7d be a0 e7 9d bd da b3 f3 be 6d d6 1a bf
       -0.24803604 -0.077101946 -0.47598153 -0.6048344
0000c0 08 06 6b be 1b 03 5f be ac d7 47 bd 6f fc e1 bd
       -0.2295152 -0.21778528 -0.048789665 -0.11034476
0000d0 8a 2c cb bd 09 43 b8 bc 72 75 45 8c d8 55 a1 b5
       -0.099206045 -0.022492902 -1.521167e-31 -1.2020419e-06
0000e0 f2 d2 d7 bd 8c 7a e1 b9 2e d9 5d bb a8 cd 63 bd
       -0.105382815 -0.0004300665 -0.0033851373 -0.05561605
0000f0 18 80 81 bc f3 dc 0f be f6 af 2a be 24 8d 45 be
       -0.01580815 -0.14049129 -0.16668686 -0.19292122
000100 d6 6d 88 be 15 28 88 be 51 2d 3b b5 59 0f 57 be
       -0.26646298 -0.2659308 -6.972887e-07 -0.21001948
000110 24 98 3b b9 f0 ad 34 be 54 f9 73 ae a2 e7 0e be
       -0.00017890387 -0.17644477 -5.547325e-11 -0.13955548
000120 52 d3 0b 3e 40 a1 8b bb 19 f8 54 be 7f a6 87 bc
       0.13654831 -0.004261166 -0.20797767 -0.016558884
000130 4b 65 09 bf f9 c6 16 bd 00 54 c1 bd ba d1 0e ba
       -0.53670186 -0.03681085 -0.0943985 -0.0005448122
000140 5b 80 77 92 7d 4a ca 9b 3e ad bf be 6e 58 29 be
       -7.809767e-28 -3.3466234e-22 -0.3743686 -0.1653764
000150 f6 1f d1 b6 e1 10 03 b2 c5 88 51 be 5a b0 69 be
       -6.232406e-06 -7.629041e-09 -0.2046233 -0.22821179
000160 33 94 6d bd 69 9f 1d b0 e0 3c 82 bd 67 d7 87 ba
       -0.058002662 -5.73428e-10 -0.06359267 -0.0010363878
000170 d3 cd 10 bd 42 4b 5f bd e1 b5 21 bd 53 c3 6a be
       -0.03535254 -0.05451513 -0.039480094 -0.22926073
000180 2c ec 82 b7 59 22 3d be 2b 9c 9e ba 64 d5 bb be
       -1.5607184e-05 -0.18470134 -0.0012100985 -0.36686242
000190 64 5b 7e bd f8 8a aa bc a9 13 d7 b9 5a 37 25 89
       -0.062098876 -0.020818219 -0.00041022644 -1.9887179e-33
0001a0 92 42 15 b9 2a b2 99 a1 dc 94 30 bb 26 15 36 be
       -0.00014234547 -1.0414843e-18 -0.0026944196 -0.17781505
0001b0 87 46 5d b4 40 7d 41 82 30 1e c0 be 71 b5 d4 bd
       -2.0607887e-07 -1.4215346e-37 -0.3752303 -0.1038617
0001c0 d1 3e c9 b5 6b 9c 54 be a6 42 82 be b6 15 11 b2
       -1.4993949e-06 -0.20762794 -0.25441474 -8.445047e-09
0001d0 b4 49 e7 bd 49 ba f3 bd 50 25 a1 b2 67 88 0c bd
       -0.11293355 -0.119007654 -1.8759835e-08 -0.03430977
0001e0 33 ad ad b8 01 a9 97 a6 fa 24 4b be 9f e8 d7 bc
       -8.281544e-05 -1.0523538e-15 -0.19838324 -0.02635604
0001f0 79 83 fa be 3b d8 24 bc 24 c0 8a be fa 81 8f be
       -0.4892843 -0.010061319 -0.27099717 -0.28028852

weight f4 [128, 128]
000000 78 f8 6a bc 3b 3a 82 3d 05 59 3a bc d5 1a 9b 3c
       -0.014341466 0.06358763 -0.011373763 0.018933693
000010 26 5a 48 bc 1b b4 37 3c 1c c2 69 3c ae 7a 27 bb
       -0.012228524 0.011212374 0.014267471 -0.00255553
000020 10 4c f8 3d 9f 0c 01 3b 03 b4 b3 3c 37 8c 35 bb
       0.12123883 0.001969136 0.021936422 -0.0027701983
000030 48 c7 0d bc 74 6f a8 be bb 95 97 3c d0 a6 93 bc
       -0.008653469 -0.32897532 0.018504014 -0.018023878
000040 24 00 85 ba 83 96 5e 3c 82 5f cd 3a 3b cb 6f 3c
       -0.0010147137 0.0135856895 0.0015668722 0.014635856
000050 50 fd e8 3b 6a a1 c3 bc 8f 9b ef bc f3 b6 56 be
       0.0071102753 -0.02388068 -0.02924898 -0.20968227
000060 ae e0 ac bd 15 b7 a2 bb 4e a3 f5 bc 35 09 a2 3b
       -0.08441292 -0.0049656727 -0.029985096 0.004944945
000070 c2 65 2c bc 3d d8 03 3c f5 ec b9 bc b4 60 ff bc
       -0.010522308 0.008047161 -0.022695998 -0.031174041
000080 0b 88 33 bc 82 21 93 3c 8a 9c 92 3c 72 33 be 3c
       -0.010957728 0.017960314 0.01789691 0.02321789
000090 f9 82 53 3c cf 85 4d 3d 70 86 7a bb 60 b5 41 bc
       0.012909644 0.050176438 -0.0038227104 -0.011823028
0000a0 91 b1 08 bb b4 3e cc bd fd 0a f4 bb 9b 30 d2 39
       -0.002085779 -0.09972897 -0.007447599 0.00040090535
0000b0 1d c8 85 bb 9f cb a0 bc fa c3 73 3c a5 24 9e 3c
       -0.0040826933 -0.019628344 0.014878267 0.019304583
0000c0 4f e5 09 3c ba a1 50 3c 16 e8 b4 3b 1c d7 f6 bc
       0.008416488 0.012733871 0.005520831 -0.030131869
0000d0 bd ec 99 3c 07 af c2 bc dd 10 a1 3b fc 1d 07 3c
       0.018789643 -0.0237651 0.0049153403 0.008246895
0000e0 1f 8f 31 bb 3f 27 80 3e b1 32 ea ba 86 d4 eb 3c
       -0.0027093363 0.25029942 -0.001786789 0.028787863
0000f0 40 b5 b4 bc e6 24 5d bc bb a3 38 3c d2 c9 c1 3c
       -0.022059083 -0.013497567 0.011269505 0.023655806
000100 85 5f ad 3b ad f3 7c b9 0f 79 7f 3c 53 aa b5 bd
       0.005290928 -0.00024123369 0.015592827 -0.088703774
000110 a8 b1 32 3b 21 16 4d 3c c6 bd 1a bc e8 c4 16 3b
       0.0027266536 0.012517483 -0.00944466 0.002300555
000120 29 4e 80 bc 36 7c d8 ba 03 38 a4 3b 05 04 43 bb
       -0.01566227 -0.001651651 0.00501156 -0.0029757034
000130 87 71 42 3c f4 46 f2 bb b6 31 c2 3e 47 92 e7 3a
       0.011867887 -0.007393712 0.3792855 0.0017667495
000140 6d dd 81 bc a8 90 bd bc 56 35 60 ba 3b 8c 01 bc
       -0.015852654 -0.023140267 -0.00085528695 -0.007906969
000150 c0 0a a6 bc 39 09 09 bb 69 ea 7b bb 02 eb 0d 3b
       -0.020268798 -0.0020910038 -0.003843928 0.0021654968
000160 13 20 00 bc 82 b7 c7 bc d7 d2 56 3c 87 66 22 39
       -0.007820147 -0.024379496 0.013111792 0.00015487718
000170 5f d5 90 bc 63 aa 04 bc 55 31 51 3c 55 86 45 bc
       -0.017679868 -0.008097264 0.012768109 -0.012055953
000180 48 7e de 3b d4 6a a7 bc 22 f0 89 bc 13 b4 89 bc
       0.0067899562 -0.020436682 -0.016838137 -0.016809499
000190 b3 0f 58 be 0d d6 99 bc c6 7d 5a 3e 53 4f 91 3c
       -0.21099739 -0.018778825 0.21337041 0.01773802
0001a0 b7 35 fc b9 c3 fc 12 3c ef 4b 2a bc 91 7d 61 3a
       -0.00048105206 0.008971396 -0.010394081 0.00086017797
0001b0 90 08 e8 b9 29 5b 10 3c 9c b3 2e ba 22 0b 34 3c
       -0.00044256868 0.008810797 -0.0006664337 0.010988982
0001c0 f2 2d fa bb bf ad 71 b8 82 39 e7 bc 88 54 84 bc
       -0.0076348716 -5.762069e-05 -0.028225664 -0.016153589
0001d0 cc f4 eb 3b 59 08 46 3c 08 ca be 3c a8 79 c1 3c
       0.007200813 0.012086951 0.023289695 0.02361758
0001e0 f1 fc 80 bd 34 44 fd bc dc f4 db bc 84 d3 99 bc
       -0.06298245 -0.03091631 -0.026850156 -0.018777616
0001f0 7f d3 3a bc dc f9 d7 bb 06 bb 47 be 24 a7 53 3c
       -0.011402964 -0.006591065 -0.19504938 0.012918267
000200 a7 8e 0d 00 17 44 f9 b1 17 38 19 00 78 93 48 00
       1.245035e-39 -7.2545947e-09 2.316009e-39 6.665058e-39
000210 a6 ef 0c 80 a1 33 23 00 83 8c 34 00 d4 92 ba 0d
       -1.187996e-39 3.232763e-39 4.825852e-39 1.1498483e-30
000220 d9 bc 36 36 28 01 3e 80 3a 03 19 00 21 f9 0d 8a
       2.7230037e-06 -5.694216e-39 2.297045e-39 -6.835759e-33
000230 5f 98 1d 00 79 4f 41 ae 1a 0b 00 80 28 4b 30 80
       2.71789e-39 -4.3953705e-11 -3.982e-42 -4.435065e-39
000240 11 86 42 80 88 5d 2c 00 16 d9 30 80 30 70 12 00
       -6.109237e-39 4.074315e-39 -4.48598e-39 1.693284e-39
000250 8a fa 17 00 9d c1 84 0f 46 62 32 80 6d 6b 53 b5
       2.202093e-39 1.3090782e-29 -4.627029e-39 -7.875995e-07
000260 80 ac bc ba ab f1 3f 00 17 6b 3f 00 58 96 3c 00
       -0.0014394671 5.87233e-39 5.824053e-39 5.564063e-39
000270 f3 34 33 80 b3 ab 2c 80 30 04 bc 8b 0e 21 3e 00
       -4.702605e-39 -4.102356e-39 -7.2421267e-32 5.705659e-39
000280 1f 99 49 80 25 eb 07 b1 cf 75 e8 83 f5 1f 70 15
       -6.758921e-39 -1.977875e-09 -1.3662782e-36 4.8492824e-26
000290 10 98 12 80 10 45 38 b5 2a 0f 0f 00 bc 64 02 00
       -1.707589e-39 -6.864584e-07 1.382972e-39 2.19808e-40
0002a0 54 ba 43 00 02 fe 8a 30 16 43 1e 80 fe 8d 09 00
       6.21982e-39 1.0113015e-09 -2.779131e-39 8.77457e-40
0002b0 48 ec 0b 80 45 18 10 00 9d 65 d1 92 d9 28 16 00
       -1.094952e-39 1.478074e-39 -1.3214804e-27 2.035034e-39
0002c0 6d ec 67 00 f0 19 22 00 98 97 46 80 ba 83 3b b2
       9.54387e-39 3.131711e-39 -6.482866e-39 -1.0914784e-08
0002d0 97 55 46 80 c1 28 3b 00 dd a0 04 80 dc 8c 45 00
       -6.459189e-39 5.432914e-39 -4.25049e-40 6.38718e-39
0002e0 9f 4a 4f 8c 00 35 93 22 0c 07 85 0c da 78 bf b7
       -1.5969155e-31 3.9900546e-18 2.0496136e-31 -2.282525e-05
0002f0 df c8 08 00 5b 90 20 80 cc 1a 8d 25 a0 44 22 00
       8.06743e-40 -2.990521e-39 2.447776e-16 3.147025e-39
000300 fb 8f 01 00 dd 97 26 80 3d 3a 89 17 95 15 f9 ae
       1.43486e-40 -3.544227e-39 8.868119e-25 -1.1327043e-10
000310 e9 0c 47 80 1d e4 1c 00 b1 b5 05 00 78 7b 7d 9a
       -6.524952e-39 2.653226e-39 5.24356e-40 -5.241891e-23
000320 b2 4c 08 80 46 5c 05 00 42 2c 2a 80 00 aa 2b 00
       -7.62197e-40 4.92279e-40 -3.872968e-39 4.009911e-39
000330 94 fe 3f 80 b5 dd 49 80 25 1b 6d b6 b6 b9 4a 85
       -5.876962e-39 -6.783525e-39 -3.5331552e-06 -9.532104e-36
000340 cd 9e 0f 80 be ff 1d 00 15 42 1c 90 f0 9f 2a 00
       -1.4345e-39 2.754972e-39 -3.0816483e-29 3.914466e-39
000350 9a 72 0c 00 2a 09 be 23 0c 24 20 80 08 91 2e 22
       1.143137e-39 2.0603722e-17 -2.951667e-39 2.3658176e-18
000360 b9 60 14 80 3e 58 0c 80 46 85 95 9b ef 3a 19 80
       -1.871407e-39 -1.133681e-39 -2.4736108e-22 -2.317029e-39
000370 e7 31 20 8a fb 47 11 00 52 c7 0d 00 3b 57 03 00
       -7.713105e-33 1.587025e-39 1.265364e-39 3.06799e-40
000380 52 c6 40 1e f6 d5 25 80 c1 c6 32 00 f3 2b 1d 80
       1.0205407e-20 -3.474668e-39 4.663074e-39 -2.678995e-39
000390 f2 4e 97 b0 fb 25 2e 00 ad 52 3e b5 b7 d3 07 03
       -1.1009134e-09 4.238058e-39 -7.0900825e-07 3.991597e-37
0003a0 1e e8 0d 00 69 27 00 80 fb a7 03 80 0e 46 2e 80
       1.27713e-39 -1.4138e-41 -3.35767e-40 -4.249564e-39
0003b0 c5 af 19 80 7f 0c 4a 80 09 7c 07 00 60 17 0d 80
       -2.358942e-39 -6.80031e-39 6.87344e-40 -1.202247e-39
0003c0 fe ea 50 10 2b 76 16 80 12 15 07 80 86 a2 27 00
       4.1201798e-29 -2.062772e-39 -6.50407e-40 3.639887e-39
0003d0 94 a9 3e 00 72 c9 36 80 e1 ca 10 0b 78 10 43 24
       5.754634e-39 -5.031382e-39 2.788602e-32 4.2297834e-17
0003e0 54 65 be 35 c3 60 04 00 a7 a4 28 80 34 e1 5b 81
       1.4185593e-06 4.02054e-40 -3.732486e-39 -4.0385523e-38
0003f0 da 5e d4 11 81 13 04 00 45 75 a1 37 87 b2 04 80
       3.350616e-28 3.74339e-40 1.9247303e-05 -4.31386e-40

weight f4 [128, 128]
000000 a8 52 dc 3a c1 66 77 3e 9d ce 7e 3b 89 60 0f bc
       0.0016809301 0.24160291 0.0038880475 -0.008751043
000010 a1 d2 3f 3c 54 7a 67 bc ee c0 65 37 11 72 4c bc
       0.011707933 -0.014128286 1.3694384e-05 -0.012478367
000020 1d 01 ab 3e bf a5 d9 ba 1c c9 8c 3c 02 7b 92 3c
       0.33399287 -0.0016605182 0.01718574 0.01788092
000030 9e f6 36 3c 9a f0 8e 3e 96 e8 18 3c 77 b1 91 bc
       0.011167197 0.2791794 0.009332797 -0.017784817
000040 08 6b 70 3c 67 4a 28 bb 48 bd a3 3a a5 bd 18 3c
       0.014673956 -0.0025679113 0.0012492323 0.0093225585
000050 aa 5a 0b 3c 91 e5 37 bc 1e d6 24 bc 84 4b 56 bc
       0.008505503 -0.0112241665 -0.010060815 -0.013079528
000060 63 95 a0 be 47 5f 62 bc 83 d3 4a 3b 50 15 dc 3a
       -0.31363973 -0.013816661 0.0030948825 0.001679102
000070 fa 17 03 bb 4b 6c 22 3b 06 17 c7 bc 96 4d 02 3c
       -0.0020003305 0.0024783786 -0.02430297 0.007953068
000080 d9 03 16 bc c7 e4 d0 3d 2a 1b a7 3c dc e3 be ba
       -0.009156191 0.10199886 0.020398695 -0.0014563757
000090 34 b4 df 3c fa d6 b3 3d e4 3c 83 bc 62 ab ec 3b
       0.027307607 0.08781238 -0.016020246 0.007222579
0000a0 dc f3 08 3c 1a 15 81 bd 77 df e9 bb 8a 2f 39 bc
       0.008358922 -0.06302853 -0.007137235 -0.011302838
0000b0 7b 91 dd 3b d4 b3 a8 bc b7 5f a2 3c e7 fc 66 bc
       0.0067617274 -0.020593561 0.019821031 -0.014098383
0000c0 b4 cf 8e 3c ac 7d dc 3b bb 40 77 3c 8c 92 18 3d
       0.017433025 0.0067288484 0.015091117 0.037249133
0000d0 a9 b0 ab bb 27 df 72 bb 73 ad 94 bb 62 42 58 3b
       -0.0052395654 -0.0037059279 -0.0045372783 0.0032998552
0000e0 41 b9 cc bc c0 e7 18 be d0 b4 9f 3c 31 67 e2 3c
       -0.02499068 -0.14932156 0.019495398 0.027637096
0000f0 00 15 91 bc 35 cb b0 bb e4 b5 c2 3c a7 6b 8d 3b
       -0.017710209 -0.005395318 0.023768373 0.0043158117
000100 f6 bf 76 3a af cd 1f b9 0b 5e 52 bc f0 ec b8 bd
       0.00094127597 -0.00015240045 -0.012839804 -0.09029567
000110 46 59 1d 3c 03 73 5f bc 6a c2 15 bc 16 ab eb 3b
       0.009603804 -0.013638261 -0.00914059 0.007192026
000120 68 ef 61 bc a1 d3 0c 3b eb c7 f2 3b 9f 85 a0 bb
       -0.013789989 0.0021488445 0.007409086 -0.0048987414
000130 79 80 96 bc 50 30 18 bc 10 11 af 3e 8a 6e 0c 3d
       -0.018371807 -0.009288862 0.34192705 0.034285106
000140 26 80 95 3c cf 67 e5 3a 17 ab 00 3c f6 95 70 bc
       0.018249582 0.0017502251 0.007853291 -0.014684191
000150 02 77 32 3c 69 f6 2d 3c c4 de 84 bc d3 4a 45 bb
       0.0108926315 0.010617831 -0.016219504 -0.0030104413
000160 fa de 88 bc 57 7d d9 bc 76 8e 12 3a 7b a4 b8 bc
       -0.016707886 -0.026549025 0.00055906863 -0.022539368
000170 4a 32 a0 bc 7f da cd 3b cf 87 e7 3a e8 7e 93 bc
       -0.01955523 0.0062821503 0.0017664375 -0.01800485
000180 2f ea 52 bc 07 37 a4 3b 1d 13 af 3b 09 d2 32 bc
       -0.0128732165 0.0050114426 0.0053428547 -0.010914334
000190 03 fe a6 be d7 35 09 bd 02 1c 11 3d 34 a8 ab 3c
       -0.3261567 -0.03349861 0.0354271 0.020954229
0001a0 2b bd f3 bc 5e 66 65 bb d5 ee 90 bc 54 ed 5e 3c
       -0.029753288 -0.0035003643 -0.017692009 0.013606388
0001b0 e8 80 9c 3c 5a c2 0b bc c0 dd fa bb dd d2 d9 3b
       0.019104436 -0.008530224 -0.007655829 0.0066474513
0001c0 55 6a 26 3c d2 b0 88 3c f9 dd 33 bc ee f9 36 3c
       0.0101571875 0.016685877 -0.010978215 0.011167986
0001d0 c4 1f 8d 3c 1b 30 05 3c c8 45 4a 3c a9 3a a6 3c
       0.017227061 0.008129145 0.012345739 0.020291643
0001e0 23 91 37 3d 8c 02 01 bc 1f c4 10 bb 7d d7 17 3c
       0.044816148 -0.007874142 -0.0022089554 0.009267685
0001f0 62 6d 71 3b 8d b0 b2 3a b3 e2 60 3e 82 d5 40 3c
       0.003683888 0.0013632938 0.21961479 0.011769654
000200 c4 2b 4d 00 04 b5 34 b6 d4 2f 20 80 97 1b 3b 80
       7.087033e-39 -2.6927455e-06 -2.955893e-39 -5.428192e-39
000210 4c 81 02 00 79 89 27 80 9d 93 2d 00 79 6f 2e 90
       2.30054e-40 -3.6309e-39 4.185551e-39 -3.4401325e-29
000220 34 de 23 35 e8 f3 24 00 1a 15 18 00 23 cf d3 06
       6.104558e-07 3.393575e-39 2.211622e-39 7.967374e-35
000230 c6 91 2f 80 40 21 a0 a5 10 20 01 00 09 f9 22 80
       -4.368562e-39 -2.7778107e-16 1.03337e-40 -3.211744e-39
000240 19 10 17 80 fa 30 4a 00 3d f1 43 00 e6 ed 15 00
       -2.117991e-39 6.813396e-39 6.239518e-39 2.013887e-39
000250 ac a2 01 80 67 01 10 12 ed da 13 00 de 14 0f b4
       -1.50191e-40 4.5440117e-28 1.82341e-39 -1.3325504e-07
000260 91 34 a2 ba c3 2a 22 80 20 00 3a 03 4c d6 00 00
       -0.0012375285 -3.137747e-39 5.466063e-37 7.6875e-41
000270 69 fc 42 80 d3 19 23 80 fa ba 09 89 b5 3b 05 80
       -6.15169e-39 -3.223506e-39 -1.6578691e-33 -4.80596e-40
000280 63 48 18 80 ec b1 28 ab c1 46 c3 88 4f ab d5 16
       -2.23002e-39 -5.9932506e-13 -1.175277e-33 3.4520117e-25
000290 ad 66 29 80 45 6c 9e 2c 1c 0c 3b 00 1d 1c 4e 80
       -3.802088e-39 4.5026504e-12 5.422638e-39 -7.173254e-39
0002a0 fe 3e 21 80 3c 6b 4e 34 28 97 29 80 07 02 1f 00
       -3.053169e-39 1.9224257e-07 -3.81948e-39 2.847628e-39
0002b0 d5 b3 0c 00 67 91 34 80 e7 48 b4 8f 68 df 3b 80
       1.166538e-39 -4.827606e-39 -1.7777451e-29 -5.498437e-39
0002c0 b7 b8 70 00 1c 52 02 80 cd 6b 0f 80 15 91 52 b0
       1.0351839e-38 -2.13126e-40 -1.416204e-39 -7.660373e-10
0002d0 86 8b 1c 00 83 23 40 00 24 f8 1c 80 be 42 3e 00
       2.621445e-39 5.890211e-39 -2.66041e-39 5.717743e-39
0002e0 02 61 85 8d 4e a3 41 9c ba 90 61 8c ff 99 b9 b8
       -8.220112e-31 -6.406941e-22 -1.7376922e-31 -8.8501714e-05
0002f0 f6 2b 36 00 6d df 89 80 0c 6d 1c a6 c5 a0 1c 80
       4.974887e-39 -1.2661613e-38 -5.427116e-16 -2.629067e-39
000300 64 5d 41 80 ff 32 2c 80 1c e6 c3 97 f6 8b 5a b0
       -6.00281e-39 -4.059056e-39 -1.2659667e-24 -7.9506834e-10
000310 dc b6 01 00 97 51 32 00 a6 4a 2c 80 cf 1c ec 9a
       1.57433e-40 4.621044e-39 -4.06754e-39 -9.7653855e-23
000320 14 b0 11 00 30 97 26 80 70 c5 04 00 80 dd 3d 00
       1.624368e-39 -3.543985e-39 4.38169e-40 5.681424e-39
000330 54 f8 17 00 7b 54 08 00 2a 23 ed b3 3b 93 17 88
       2.2013e-39 7.6499e-40 -1.1042569e-07 -4.561298e-34
000340 e1 bf 23 07 27 51 17 00 9c 25 02 8f 1d f4 41 80
       1.2319145e-34 2.141328e-39 -6.416738e-30 -6.056879e-39
000350 c4 59 18 80 94 a1 59 23 b3 f7 37 80 b4 3c 34 22
       -2.236254e-39 1.1797809e-17 -5.13981e-39 2.4426685e-18
000360 aa 14 13 80 88 2b 4d 80 6a 86 d1 99 26 a6 30 80
       -1.752287e-39 -7.086949e-39 -2.1664383e-23 -4.467707e-39
000370 c0 58 57 87 82 ea 15 80 52 87 25 00 a1 8d 26 00
       -1.6200884e-34 -2.012671e-39 3.446457e-39 3.540556e-39
000380 85 77 c1 9f d9 f2 05 80 94 90 44 80 72 93 3c 80
       -8.193641e-20 -5.46295e-40 -6.296679e-39 -5.563023e-39
000390 fc dc d8 2d 42 08 10 80 0d 4a 35 b5 4e 01 41 00
       2.4654494e-11 -1.47233e-39 -6.753551e-07 5.969775e-39
0003a0 c6 6d 43 80 4f eb 19 80 91 c6 1a 80 f2 7c 45 00
       -6.192358e-39 -2.3803e-39 -2.458955e-39 6.381471e-39
0003b0 9e 83 1b 80 94 b3 29 00 03 34 32 00 37 bb 46 80
       -2.526774e-39 3.829676e-39 4.610433e-39 -6.495645e-39
0003c0 6f f6 92 11 17 e7 68 03 fe 39 39 80 b5 ee 3c 80
       2.3186615e-28 6.844395e-37 -5.255427e-39 -5.595762e-39
0003d0 0c 75 47 00 e8 17 13 80 eb 84 a3 0e f3 c7 c3 23
       6.562309e-39 -1.75345e-39 4.0310598e-30 2.1226624e-17
0003e0 40 a6 e5 38 7c 61 3f 80 c2 ae 4b 00 11 12 08 83
       0.000109505374 -5.820607e-39 6.950354e-39 -3.9987547e-37
0003f0 b2 65 37 16 de d8 20 80 27 75 41 33 1c 88 1f 80
       1.4814712e-25 -3.016533e-39 4.5042864e-08 -2.895727e-39

bias f4 [128]
000000 e3 04 e4 bd f5 fc ce bd eb 5d 01 bd f3 7a 04 be
       -0.111337446 -0.101068415 -0.031583708 -0.12937526
000010 71 e7 70 be 29 9c 5b a9 91 13 ad bb 70 5a 16 bd
       -0.23525788 -4.8763216e-14 -0.0052818735 -0.03670734
000020 9e 3c 12 bd 45 14 d9 bd fb 8f bf ba ad 37 6b bd
       -0.03570234 -0.10599569 -0.0014615053 -0.057426143
000030 fc 56 51 3d a3 03 2a be b7 78 13 a9 3c 32 26 bd
       0.051108345 -0.1660295 -3.274526e-14 -0.04057525
000040 af 6f 95 9a 5c 7a 58 bd d6 28 7c be 8b 63 40 3c
       -6.180539e-23 -0.052851066 -0.24624953 0.011742483
000050 69 6a ad bd 4b a4 d2 bd 9b bd a1 3c 97 d1 ea 3d
       -0.08467562 -0.10285243 0.019743731 0.11465757
000060 fa c0 ed 3d a5 3d 58 be 61 01 d1 8d 6f ec 29 92
       0.11609073 -0.21117266 -1.2880951e-30 -5.3618424e-28
000070 f2 99 bd bb e6 33 5d bd df 7c 00 3d a3 3b 45 be
       -0.005786174 -0.054004572 0.031369086 -0.19261031
000080 ac 5b 5c bd d4 24 8a bc 83 18 e9 bb 7d 77 0d be
       -0.053798363 -0.016863264 -0.0071135177 -0.13815112
000090 5e df 91 bc 28 19 52 3c 72 bd e0 b3 be 3b ad b9
       -0.017806705 0.0128233805 -1.0465273e-07 -0.00033041643
0000a0 63 e9 99 8f 60 69 ab bd 60 1f 96 bd aa ce 30 a6
       -1.5176862e-29 -0.08369708 -0.07330203 -6.134235e-16
0000b0 1b 48 0b bd 00 a9 1e 3d e7 e2 3a be 57 69 21 be
       -0.034004312 0.03873539 -0.18250619 -0.1576284
0000c0 77 26 34 b5 60 cb e0 bc f4 55 db bd 41 0d 21 be
       -6.71112e-07 -0.027440727 -0.10709754 -0.15727712
0000d0 96 1e d1 bd af b7 f2 bc 8e d7 d8 3b 76 32 fa ab
       -0.10210912 -0.029628603 0.006617493 -1.7777574e-12
0000e0 03 32 9a be 24 0e 62 bb 9c 8c f9 ab 5d 53 b8 b9
       -0.3011628 -0.0034493292 -1.7731541e-12 -0.00035157325
0000f0 87 f9 86 bc 3d 9a 1a be 92 aa 31 b6 6c de 02 be
       -0.016476406 -0.150979 -2.647434e-06 -0.1278016
000100 17 15 42 be ef 25 9f bb 6f 9c 0e bd a6 4e 64 bd
       -0.18953358 -0.004856817 -0.034817155 -0.055739067
000110 f5 a1 da aa 5e f6 8c 3c 7e 50 20 bd 0d c8 0c 3e
       -3.883696e-13 0.01720732 -0.039139263 0.13748188
000120 3b bd f2 bd d8 46 68 a2 a7 0c 05 be f4 97 2e be
       -0.11852499 -3.1479367e-18 -0.12993108 -0.17050153
000130 fa b2 bf bd dd 68 53 99 5e 75 50 bd 83 85 1e be
       -0.09360309 -1.0929621e-23 -0.05089318 -0.15480618
000140 44 00 7b be 34 b0 3b b8 a5 e9 99 3d 4c 38 8c bd
       -0.2451182 -4.4748376e-05 0.07515267 -0.06846675
000150 e9 d3 86 bb cc 43 39 be 51 cd 2d be 22 ce ba b7
       -0.004114617 -0.18092269 -0.16972853 -2.2268916e-05
000160 f8 74 a0 bc f5 0e 38 b7 ce 9e 2a 3c 2c d8 2b be
       -0.019587025 -1.0970737e-05 0.010413839 -0.16781682
000170 ba 22 92 bd 0f bc 0c 3e 43 a9 97 bc d9 51 9a bd
       -0.0713553 0.13743614 -0.018513327 -0.075351425
000180 c4 00 a2 8c 55 cf 75 be af e7 94 bd a9 90 d1 bd
       -2.4960513e-31 -0.24004872 -0.07270753 -0.1023267
000190 0d a0 9f a5 b3 39 e9 bd a2 f6 b6 a2 29 c3 01 bd
       -2.7690558e-16 -0.113879584 -4.959233e-18 -0.03168026
0001a0 63 7d 11 be e4 5e 0a 3d 9f c2 5b bd 17 b8 2d be
       -0.14207987 0.0337819 -0.053652402 -0.16964756
0001b0 2d 18 75 bb ee 78 b8 3d f4 e5 3d be 1b e9 1e 3c
       -0.0037398443 0.090074405 -0.18544751 0.009699131
0001c0 16 c2 34 bd d4 9e 2e be 5d 6f 76 bd 18 80 e5 ba
       -0.044130407 -0.17052776 -0.060164798 -0.0017509488
0001d0 ac 53 cb 3c bb f5 48 3e 16 ce 95 be 0c 1b 52 bd
       0.024820171 0.19624989 -0.29258794 -0.051295325
0001e0 84 08 b6 bc 07 eb 2d 3e bd 9e 02 ba c6 56 ce bc
       -0.022220857 0.16984187 -0.00049827603 -0.025187861
0001f0 bf a6 bb 96 e5 ea 3d be 0a 86 2e 3c 45 6b 2d 3d
       -3.031671e-25 -0.18546636 0.010652075 0.04233863

weight f4 [128, 128]
000000 0b 80 34 bc eb e9 1d 00 5b 81 72 be 74 54 1b 06
       -0.011016856 2.747143e-39 -0.23682158 2.9214306e-35
000010 c4 6c d1 bd 74 2e 35 39 53 7f 6f be 0f 3c ab af
       -0.102258235 0.0001727881 -0.23388414 -3.1147393e-10
000020 7f c8 d2 3d 96 83 84 2f 88 56 60 3d 5c 22 39 80
       0.10292148 2.4104158e-10 0.054770023 -5.246949e-39
000030 04 63 83 3d 31 2a f1 bd db 5c bd 3d 12 c7 1e b9
       0.0641537 -0.117756255 0.092462264 -0.00015142214
000040 6a ba 3c be 51 8e 98 be 98 c3 55 35 3f 84 02 80
       -0.18430486 -0.2979608 7.963331e-07 -2.31112e-40
000050 f4 ea 59 bd 6d f7 30 00 75 b1 28 3c 60 18 49 80
       -0.053202584 4.496863e-39 0.010296215 -6.712735e-39
000060 0a 73 99 bc 02 60 50 11 fe f8 6c be 18 54 a7 bd
       -0.018731613 1.6437892e-28 -0.23141858 -0.081703365
000070 cc 2e 32 3d 4c 36 97 36 50 d3 2f 00 27 be 00 3d
       0.04350166 4.5064717e-06 4.392073e-39 0.031431343
000080 a9 a1 d0 1c ac 42 05 97 ec e8 00 be 87 c3 4d bd
       1.3806074e-21 -4.305877e-25 -0.12588853 -0.050235298
000090 55 c8 e8 aa 98 e0 7d 3c 40 46 2b 80 2a 34 0f bd
       -4.1350487e-13 0.015495442 -3.974127e-39 -0.034961857
0000a0 9e d0 53 3d 4e 35 06 3c 9e e2 02 37 39 21 1f b2
       0.051712625 0.00819142 7.801367e-06 -9.262572e-09
0000b0 4b a3 a1 3c 2b e5 29 bd a9 c4 c8 3b ce 7d 63 3d
       0.019731184 -0.041478317 0.0061269593 0.0555399
0000c0 e5 b5 18 be 6b 16 36 3a 38 86 5a 3d 61 fc 8e bd
       -0.14913137 0.00069460896 0.053350657 -0.06981731
0000d0 e0 01 8b 3c a7 4a 4d 3b 8d 0f 4b 80 34 9f ec a3
       0.016968668 0.0031325014 -6.893241e-39 -2.5654596e-17
0000e0 81 01 52 3c b7 c7 19 b2 41 e8 38 be 98 1e 15 bc
       0.012817741 -8.951182e-09 -0.18057348 -0.009101532
0000f0 e0 fd 4d bb c1 4f aa bd 60 7d 14 3d 64 62 bd bd
       -0.003143184 -0.08315993 0.03625238 -0.09247282
000100 52 a9 6f be 36 95 a9 3d 6c 27 1e 80 6c 6f d7 bc
       -0.23404434 0.08280413 -2.769207e-39 -0.026298247
000110 e0 d3 ed a4 68 2a 2f be 0c 65 43 00 08 03 8a bb
       -1.03141296e-16 -0.1710602 6.189227e-39 -0.004211787
000120 54 4a 23 be c6 70 13 ba 2e 61 32 3d 64 63 db bd
       -0.15946323 -0.00056244095 0.04354971 -0.10712317
000130 60 ee e2 bc 48 47 03 bc b5 4f 0f bd dd 17 3a 34
       -0.027701557 -0.0080126 -0.034988124 1.7331281e-07
000140 32 8e 10 80 d4 d7 39 00 83 c6 a1 bd e5 0d f2 bd
       -1.520378e-39 5.312048e-39 -0.07899191 -0.118190564
000150 c3 59 e3 89 d0 c7 07 00 11 2e 82 bc 49 9a 55 bd
       -5.4732674e-33 7.14528e-40 -0.015891107 -0.05214909
000160 2f eb 07 be 96 8d d6 a0 c1 14 ec bc e2 a0 83 b3
       -0.13273309 -3.6346704e-19 -0.02881849 -6.129427e-08
000170 3a de b1 bc 34 bf 12 3d c5 72 19 3b 7b 9a cb bd
       -0.021712411 0.035826877 0.0023414355 -0.09941574
000180 74 ba 93 a5 0f 21 05 be bf e6 f2 24 a1 99 3c bd
       -2.562678e-16 -0.13000892 1.0534167e-16 -0.04604495
000190 f1 cd d6 3c e2 9d cf 39 ec 81 3a 2a 09 4e 14 80
       0.026221247 0.0003959975 1.6565194e-13 -1.864704e-39
0001a0 3c d9 26 00 4d 4f 14 80 8c 2f 9a b5 a8 1a e9 bd
       3.567678e-39 -1.865158e-39 -1.1487732e-06 -0.113820374
0001b0 77 20 26 80 31 0f 2e 80 96 08 39 3d da de 2d 3e
       -3.501395e-39 -4.229882e-39 0.045174204 0.16979542
0001c0 51 30 fe 29 4a 4d 9f 3a ca 9a 6d 3d 47 ca 0a 24
       1.12882475e-13 0.0012153771 0.058008946 3.0095316e-17
0001d0 79 bb 06 3d 23 e5 38 bd 39 50 5f a0 11 6d a9 bd
       0.03289363 -0.045140397 -1.8915378e-19 -0.08272756
0001e0 01 23 d7 2b e2 82 41 00 8b 7e 9e bd b1 a6 b3 39
       1.5286384e-12 6.016259e-39 -0.0773898 0.00034265735
0001f0 0d 4b 65 bc 15 d2 82 b7 7b 63 5d 3c 95 0e cf bd
       -0.013994944 -1.5595035e-05 0.0135124875 -0.10110203
000200 6c 82 cd bd 1c ab ea 0a 99 65 6a be b5 59 87 a7
       -0.100346416 2.2597745e-32 -0.22890319 -3.7567288e-15
000210 3d a5 7d 3c b6 fa 0d bd 9b 09 90 be df 45 23 2f
       0.01548129 -0.034662925 -0.28132328 1.4849587e-10
000220 2c e8 00 3d 27 36 da a1 84 ca 23 be 78 4a 35 00
       0.031471416 -1.4786589e-18 -0.15995222 4.893996e-39
000230 ad 1b 23 3d 83 7e a8 bd 31 08 4a bc f3 d6 11 3b
       0.039821316 -0.08227255 -0.012331055 0.0022253364
000240 63 33 f4 bc c1 95 a7 bd 76 38 01 b4 ba df 24 80
       -0.02980966 -0.0818286 -1.2034602e-07 -3.386336e-39
000250 22 5a 38 be bc 1b 43 00 10 d6 37 3b fa 5b 2c 80
       -0.18003133 6.162927e-39 0.0028051175 -4.073757e-39
000260 6d 9e 96 3c 93 cf 17 80 d5 cc 02 be a4 29 23 bd
       0.01838609 -2.18668e-39 -0.1277345 -0.039834633
000270 d2 25 5f 3d a6 89 03 39 40 88 13 00 59 e7 48 3d
       0.054479428 0.00012544412 1.793752e-39 0.049048755
000280 d2 03 2f 00 d1 91 3c 00 be 69 58 3c 1d b6 6a bd
       4.317639e-39 5.562439e-39 0.013208805 -0.057302583
000290 e1 74 46 9e 9f 1e d9 bc 8f 93 11 80 72 c0 f5 bc
       -1.0506203e-20 -0.02650386 -1.614137e-39 -0.029998992
0002a0 8b 44 cc bc 3d d7 5c bd a0 91 70 b4 00 a8 b1 2d
       -0.024935028 -0.053916205 -2.240472e-07 2.0197177e-11
0002b0 f6 10 22 bd 62 06 29 3d 66 1f 62 be 8f d5 a5 bc
       -0.039566956 0.041265853 -0.2208229 -0.020243434
0002c0 6b 5c 12 be da 2a 94 3d 56 a3 27 bd 05 3b 0d 3e
       -0.14293067 0.07234736 -0.040927254 0.13792045
0002d0 62 32 b0 3b 6c de 83 ba a4 8a 36 00 99 da fc 97
       0.0053771 -0.0010060794 5.008852e-39 -1.63403e-24
0002e0 da f5 a1 3d dd e1 e4 34 27 10 8b bb d2 58 58 bc
       0.079082206 4.2632647e-07 -0.004243869 -0.01320477
0002f0 eb 99 7c b8 36 1c ef bc 3c e8 f4 3d 83 5b 93 bd
       -6.022483e-05 -0.029188257 0.11958358 -0.07195189
000300 b9 ee 17 be 4b d0 73 bd ca 73 2e 80 6f 20 a3 bd
       -0.14837159 -0.059524816 -4.26597e-39 -0.079651706
000310 4e 87 20 ab ed ce 76 3a c7 cb 13 00 e0 da dc bb
       -5.703119e-13 0.00094149896 1.817976e-39 -0.006739959
000320 22 23 36 3d 05 3c 4d 38 d8 e7 06 bd 87 f2 c0 bc
       0.0444671 4.8931706e-05 -0.032935947 -0.023553146
000330 ee 26 26 3e 8e bf b9 38 e9 a7 2e bd e1 5f 7a 34
       0.16225788 8.857167e-05 -0.0426406 2.3317945e-07
000340 85 4b 1d 00 83 35 23 00 10 a0 ca bd 72 ad 95 bd
       2.69032e-39 3.233439e-39 -0.09893811 -0.07308473
000350 c9 87 68 9c 79 83 03 00 6b 95 1c bd da e6 02 be
       -7.693786e-22 3.2267e-40 -0.038228434 -0.12783375
000360 0b e5 48 bd 34 9b 4b 98 39 5a f1 bb 3b b7 ce b0
       -0.049046557 -2.6315493e-24 -0.0073654917 -1.504055e-09
000370 17 6c 4e 39 9a 54 57 3d 3b b4 d9 bb 6d 39 67 bd
       0.00019685958 0.052570917 -0.0066437996 -0.05645125
000380 56 48 1d 00 ec 30 40 bd 59 c5 cf 20 f0 8a 56 bd
       2.689179e-39 -0.046921656 3.5197758e-19 -0.052378595
000390 5f 59 4d 3d f5 44 1e 39 dd f2 85 31 df 4c 1e 00
       0.05013406 0.00015093743 3.89842e-09 2.782641e-39
0003a0 ed a1 0c 80 ed a1 04 00 2b c8 f4 a0 2e 88 d2 bd
       -1.160114e-39 4.2543e-40 -4.1467668e-19 -0.102798805
0003b0 00 a2 22 00 f2 a1 26 00 9c ae 80 bd f1 d2 24 3e
       3.180522e-39 3.547844e-39 -0.06283304 0.16096093
0003c0 2a d9 d4 92 8c 14 54 bd dd 2a c7 3c 2f 3a 2c 24
       -1.3432616e-27 -0.051777408 0.024312431 3.7345838e-17
0003d0 92 12 91 3d ea 69 c3 bd a2 b4 6a 80 f0 76 3a 3c
       0.0708362 -0.09541686 -9.799361e-39 0.011380896
0003e0 d0 b0 39 2b d4 6d 3c 80 24 fb 7f bd 70 12 2b b2
       6.597058e-13 -5.549529e-39 -0.062495366 -9.957702e-09
0003f0 e4 90 ee bd 3c 43 bb 30 7a d6 87 bd b3 6e a0 bc
       -0.116487294 1.362515e-09 -0.06632705 -0.019584036

weight f4 [128, 128]
000000 f1 88 0c 3d 97 f0 5b 05 01 37 ab 3b 69 d3 ac ae
       0.034310285 1.034152e-35 0.005225063 -7.8592084e-11
000010 20 2a 2f bd 32 93 39 bc b8 c5 17 3d 81 02 b2 aa
       -0.042764783 -0.011326598 0.037053794 -3.162089e-13
000020 8b f9 c3 be 47 ca 2f 2e 4f ca 6f 3d 72 1a 42 80
       -0.38276324 3.997005e-11 0.058542546 -6.07063e-39
000030 f8 0e 27 3e b9 d4 2c bd b7 17 8e 3b 74 ea 84 3b
       0.16314304 -0.042195056 0.004336323 0.0040562693
000040 0b a7 a3 bd b0 09 7f 3e b6 8a 86 35 d2 40 29 80
       -0.07990845 0.24906039 1.0024148e-06 -3.788508e-39
000050 ae 6f 13 bd 93 0b 34 00 6b 7c 93 3b 84 e6 3a 00
       -0.035995178 4.779598e-39 0.0045009158 5.409152e-39
000060 de 9d b9 bc d5 f1 f3 1e 6c 00 d5 3d b8 2f 0a bd
       -0.022658285 2.5828645e-20 0.10400471 -0.033736914
000070 d5 e2 06 be fd de 2c 36 e3 bb 1e 00 47 43 29 bd
       -0.13172467 2.5759794e-06 2.822466e-39 -0.041323926
000080 2a e1 44 2b ab d1 ff a4 60 0b 0a 3e 3f e9 1d 3e
       6.9945666e-13 -1.1094381e-16 0.13480902 0.15421008
000090 18 57 99 a4 22 72 6b 3d ba 28 04 80 48 eb c0 bc
       -6.6500716e-17 0.057481892 -3.81952e-40 -0.02354969
0000a0 1d 2b a9 bc 30 7a b2 bc bb 39 b8 35 fe 45 be b4
       -0.02065044 -0.02178678 1.372587e-06 -3.5441184e-07
0000b0 58 e9 4c be 61 bc 0d bd 7d 01 1d be 09 54 8d be
       -0.20010889 -0.03460348 -0.15332599 -0.27603176
0000c0 59 1b 8f bd 95 71 96 3c 62 c6 55 3d f1 5d 86 3d
       -0.06987638 0.018364707 0.052191146 0.06560887
0000d0 6f 5d 48 3c db 65 14 3a 30 12 3a 80 60 2f b9 a0
       0.012229308 0.00056609296 -5.332983e-39 -3.137157e-19
0000e0 be f8 ca 3d 2d 3a 3b b1 aa 10 80 bd aa 89 7c bb
       0.09910725 -2.724515e-09 -0.062531784 -0.0038534203
0000f0 99 0b f3 ba 80 90 06 be 1b f4 e8 3c 7a 35 82 3d
       -0.0018542885 -0.1314106 0.028436711 0.06357856
000100 c9 d1 df bd 6a 24 08 3d 24 de 3c 00 93 83 f1 bc
       -0.10928685 0.033237852 5.589819e-39 -0.029481685
000110 84 6b 72 a7 11 4b 46 be 86 ea 06 00 eb 08 ae bd
       -3.364253e-15 -0.19364573 6.35144e-40 -0.08497795
000120 ec 29 65 3e 89 bd 60 b9 95 c7 94 3c fd 2d c7 bc
       0.22379273 -0.00021432912 0.018161574 -0.024313921
000130 e2 62 c5 3d c4 df e7 bb da a7 01 ba 41 3c 4d 33
       0.09638001 -0.0070762355 -0.00049459713 4.7785083e-08
000140 e6 4e 1b 80 2b ff 07 80 57 b9 c6 3c d7 99 f1 3d
       -2.507862e-39 -7.34385e-40 0.024258299 0.11796921
000150 28 5b 85 92 2c 2d 19 80 21 1c 32 be 1d e2 d3 3d
       -8.415952e-28 -2.312092e-39 -0.17393543 0.10345862
000160 1f d5 30 bd 57 1e bc 9c 49 ba 93 bc a4 90 5f b1
       -0.043171998 -1.2448639e-21 -0.018033164 -3.253299e-09
000170 bf c6 a1 bc f6 97 95 3e 1c 68 e2 3b 73 51 93 3e
       -0.01974809 0.292175 0.0069093835 0.28773078
000180 6f 92 cf 98 08 5a 1f be a4 6d 96 29 e5 74 ae bc
       -5.3656106e-24 -0.15561688 6.680358e-14 -0.021295974
000190 48 a9 da 3c 81 e0 99 39 63 32 84 2f e9 1a 1f 00
       0.026692048 0.00029349703 2.4046462e-10 2.856554e-39
0001a0 6b 0d 3a a9 de 5f 4a 00 0c c1 33 b4 b2 b5 07 be
       -4.1311935e-14 6.830217e-39 -1.6740904e-07 -0.13252905
0001b0 6e f1 ac 04 a2 05 3a 80 1f 8d c3 3d d0 52 25 bd
       4.0658724e-36 -5.32848e-39 0.09548401 -0.04036218
0001c0 84 2d d0 27 e9 be 5c be ac 2c 7f 3c 6a a2 8e 22
       5.7780945e-15 -0.21557201 0.015574615 3.866114e-18
0001d0 f0 5a 1e bf 53 f1 64 3e 16 e6 dc a0 45 0e bc bd
       -0.6185751 0.22357683 -3.7421708e-19 -0.09182409
0001e0 9e 0b c9 28 8f 26 2f 00 77 a4 11 3f 7d ec 19 3b
       2.2320521e-14 4.3301e-39 0.5689158 0.0023486905
0001f0 1c 94 91 bb 4c 84 d2 b6 75 eb b6 bd 09 5a 47 3e
       -0.004442705 -6.273889e-06 -0.089316286 0.1946794
000200 a4 c0 da 3d b0 f6 4f 9e 9a 3d b0 bd 5b 33 02 b1
       0.106812745 -1.10095025e-20 -0.086054996 -1.8946682e-09
000210 ad 58 28 be 96 bb 58 bd 44 e6 94 3e 25 0a a3 2a
       -0.16440077 -0.05291327 0.2908193 2.8961656e-13
000220 91 05 9c bd c5 7f 64 9f 67 71 0e 3d 9a 9e 1b 00
       -0.07618249 -4.8386566e-20 0.034776118 2.536454e-39
000230 e8 42 a6 bc 6f e8 be bd 77 d7 2d be 62 fb 7b 3c
       -0.020295575 -0.09321677 -0.16976725 0.015379759
000240 5f d2 e7 3c 55 87 25 be 0a e8 03 b5 9e be 35 00
       0.028298555 -0.16164906 -4.9138964e-07 4.935662e-39
000250 b7 1d b7 bd 23 50 31 80 63 18 97 3a ea 41 15 00
       -0.089412145 -4.528687e-39 0.0011527654 1.952191e-39
000260 13 e5 91 3c 8a 85 2e 00 27 88 69 3a 00 ca 00 3e
       0.017809426 4.272338e-39 0.0008908533 0.12577057
000270 4a cb 9c 3e 6b 10 8d 38 fb a8 26 00 ae a0 1e 3d
       0.30623847 6.726462e-05 3.550368e-39 0.038727455
000280 c1 4d d8 97 99 e0 3b 05 99 c8 9a 3c 64 8d ce 3c
       -1.3978301e-24 8.83395e-36 0.01889448 0.025213905
000290 10 ca f7 a1 41 51 a8 bd 29 c8 01 00 81 9a df bc
       -1.6790857e-18 -0.08218623 1.6364e-40 -0.027295353
0002a0 a4 67 74 3c 4b c1 ed bd 91 42 f4 b2 28 a0 7f 2a
       0.014917288 -0.11609133 -2.843561e-08 2.2704115e-13
0002b0 c2 e1 10 bd d8 4f 1b 3d 68 aa 9c 3d a9 c2 cd bd
       -0.03537155 0.03791794 0.0764969 -0.10046894
0002c0 fc 87 04 3d 6c 97 dc 3b 8f 90 3d bd e5 36 75 bc
       0.032356247 0.006731918 -0.04628044 -0.014966701
0002d0 cc d8 f1 3b c7 ca 4e b9 e5 66 42 80 46 de 9c 8c
       0.0073805805 -0.00019721231 -6.098054e-39 -2.4169382e-31
0002e0 90 06 0f 3f 6f 63 07 34 76 cb ff bd 0b 09 c8 bb
       0.5586939 1.2609028e-07 -0.12489979 -0.0061045936
0002f0 f3 a3 d1 b7 b6 c1 8f 3c 3c 10 b7 ba c3 17 b9 3d
       -2.4991086e-05 0.017548423 -0.001396663 0.09037735
000300 50 67 22 3e fe 43 ff bd e7 36 2b 80 8f df 75 3e
       0.15859723 -0.1246414 -3.968622e-39 0.24011062
000310 e6 bf 43 a9 c9 24 f3 3c a2 cb 00 00 19 6f de 3d
       -4.3465143e-14 0.029680626 7.305e-41 0.10861034
000320 84 2a 0f 3e 57 a3 7f 37 f8 74 85 bd 52 da 0f be
       0.13981062 1.5237215e-05 -0.06516451 -0.14048126
000330 fb 7e 8a 3d 5c 87 32 b6 f7 6b c0 3c bb 4b 8f 32
       0.06762501 -2.6602856e-06 0.023488982 1.668183e-08
000340 8b fb 0d 00 aa 86 3f 80 c4 8f 80 be bd 6d 29 be
       1.284098e-39 -5.833945e-39 -0.25109684 -0.16545768
000350 ad b1 26 97 ef b2 48 00 17 08 96 3d 8d 23 8e be
       -5.386175e-25 6.676345e-39 0.07325762 -0.27761498
000360 49 8a 7e bd e5 0b f3 93 84 9a 02 3b db d4 b5 ac
       -0.062143598 -6.1353553e-27 0.0019928524 -5.167961e-12
000370 b0 46 57 b8 02 06 0b 3e 68 8d 18 bc 05 a5 a3 3e
       -5.1325827e-05 0.1357651 -0.009311058 0.31961837
000380 dd 6b 47 80 00 29 c4 bb d7 6d 02 23 fe 2f 4b be
       -6.559014e-39 -0.005986333 7.070574e-18 -0.19842526
000390 68 7c 49 3d 10 22 22 39 10 d7 30 33 56 f5 48 80
       0.04919091 0.00015462213 4.117379e-08 -6.700166e-39
0003a0 fa c0 15 99 11 1d 44 80 7d d0 a0 a3 3a c6 16 bd
       -7.742091e-24 -6.255241e-39 -1.7435533e-17 -0.036810137
0003b0 0f 5c 31 00 9f 51 10 00 b1 3f 00 3e 4b f2 f4 3d
       4.532964e-39 1.498648e-39 0.12524296 0.11960276
0003c0 5a 32 f6 8e c2 7f ce bd cb 14 66 3d bd 25 59 21
       -6.069217e-30 -0.100829616 0.056172173 7.3572406e-19
0003d0 b1 10 4b 3d 69 2b 3d 3c 17 28 06 00 df 2d 75 3d
       0.049576465 0.011545994 5.65395e-40 0.0598582
0003e0 c2 fa 09 27 01 bb 4a 00 ac 68 c3 bd fe 25 b8 32
       1.9148505e-15 6.862911e-39 -0.09541449 2.1437696e-08
0003f0 84 ee 30 bd 2e a3 0a 33 d9 56 72 3c 10 4c c0 3d
       -0.043196216 3.227904e-08 0.014791214 0.09389508
